…
d(Flatten())\nmodel.add(Dense(100, activation='relu', kernel_initializer='he_uniform'))\n\n# Output layer/classifer\nmodel.add(Dense(10, activation='softmax'))\n\n# Compile model\nmodel.compile(loss='categorical_crossentropy', optimizer='adam', metrics=['accuracy'])\n</code></pre> <p>The summary of the built model is shown below.</p> <pre><code>Model: \"sequential\"\n_________________________________________________________________\n Layer (type)                Output Shape              Param #   \n=================================================================\n conv2d (Conv2D)             (None, 26, 26, 32)        320       \n\n max_pooling2d (MaxPooling2D  (None, 13, 13, 32)       0         \n )                                                               \n\n conv2d_1 (Conv2D)           (None, 11, 11, 64)        18496     \n\n conv2d_2 (Conv2D)           (None, 9, 9, 64)          36928     \n\n max_pooling2d_1 (MaxPooling  (None, 4, 4, 64)         0         \n 2D)                                                             \n\n flatten (Flatten)           (None, 1024)              0         \n\n dense (Dense)               (None, 100)               102500    \n\n dense_1 (Dense)             (None, 10)                1010      \n\n=================================================================\nTotal params: 159,254\nTrainable params: 159,254\nNon-trainable params: 0\n</code></pre> <p>The model is trained using the <code>fit()</code> function below. An epoch is the number of times the network goes through the training set. </p> <pre><code>model.fit(train_data, train_labels, epochs=20)\n</code></pre> <p>The follo
…
